workflow/data/test_mapping/posterior.pt (torch, 355898 bytes, 81 tensors)

_samples f4 [800, 8]
00000000: 3169 a742 c7b4 2f43 1f21 9942 df3e 8f42
00000010: 8e13 3443 5d5b 5742 7e89 fe42 910e 9742
00000020: 5f43 3643 c09b 1443 619f 0843 9e39 a042
00000030: 9da3 2243 a379 3b42 d571 3443 83e6 ec42
00000040: c373 a842 7d59 df42 faf9 1643 65b6 8842
00000050: e559 7942 1507 8d41 e47e 9142 279c b741
00000060: 9897 2042 b43f aa42 ba54 db42 c486 2442
00000070: c57c 0943 2a7c 1c43 1e2c 4643 3055 5a42
00000080: 8aba f442 17f3 c442 dc53 4043 54e2 1541
00000090: 5c26 9a42 9784 3443 9ad2 bf42 af7c 8042
000000a0: a07a 0d43 f410 6342 b44b 8e42 e3cb 0f43
000000b0: 56d0 cb42 0db8 5e42 abef 2643 a70b 3943
000000c0: 43de 0e43 c41c 5c42 b46c 1e43 d18a 2141
000000d0: a442 ae42 9850 0543 633e 3343 37e9 b441
000000e0: ca60 ae42 e9b7 5e42 d904 7b42 3959 2743
000000f0: 6398 db42 772b 4543 a1f4 b042 61e2 ab42
00000100: f24a 5541 20c7 ff42 e48f a142 8a71 3242
00000110: eaa7 1d43 9885 f042 1728 4b42 2446 2b43
00000120: a324 0740 9a18 1d43 329a e542 0125 8942
00000130: 2520 bf42 98af 4343 daa5 2542 d89a 1843
00000140: 8c67 f042 bf5d 5c42 077c 0343 d2b3 b642
00000150: bbc3 4842 ade7 bb42 c256 4642 6103 3c43
00000160: ccd4 d442 9b1e 0d43 7005 2643 b6e6 7142
00000170: df09 3b42 9b26 0e43 401c 4a42 cb5d c042
00000180: 65e8 1c43 1048 eb42 d62d ad42 6a4b b342
00000190: cfed 1742 d5b6 1b43 68b5 9842 af1b f642
000001a0: a3cf 0042 2c69 fe42 98fd 2741 588d 3943
000001b0: e91b 4741 0053 b642 a4e2 1343 fb70 0e43
000001c0: 73bf 2743 7c0f 8242 a8de bb42 fc11 0d43
000001d0: bab7 3d42 ac74 0043 1fd0 f341 adc0 3a42
000001e0: 01c3 2743 b2bc 8b42 1852 9b41 4abf b442
000001f0: 5c71 3343 b8b1 f142 4487 d242 7630 e541
00000200: 1347 d842 282b 9f42 cff7 0443 70fb ee42
00000210: e865 fc41 a592 8641 ec53 3843 967f 1a43
00000220: 8c02 0d43 762d 1943 e4e2 d642 ddca ca42
00000230: 42f9 8f42 cc10 8142 1849 0a43 2677 2b43
00000240: dbf6 9542 c487 0542 19fc ba42 a046 2742
00000250: 49e2 e642 6f0d 1343 d15f b541 c24d 0843
00000260: 8d5a fb40 d5aa dd42 4890 a242 4426 c242
00000270: c06a 6f40 2228 0642 de10 1e40 2528 0d41
00000280: 1ad1 b342 43e7 4243 b676 cc42 8b62 8a42
00000290: 1706 2443 76e8 3a43 26a2 0943 1d3d 3942
000002a0: 7837 2f41 d482 ed41 0900 e842 833a b942
000002b0: 55ee 3643 2b1b a941 7b4b ba41 f343 3b43
000002c0: c569 0643 4f0f c942 d825 cd42 6a61 0343
000002d0: a6e1 2d42 2e01 3743 b579 4743 0d0d 4e42
000002e0: 4ddf 4643 3c6c bc42 9299 0543 e4a8 3242
000002f0: 152b 6842 3ee3 3142 4f07 903f 660b 3843
00000300: 340f af42 112d 4443 99e1 3e43 388c fa42
00000310: 7106 3842 ec72 0142 f5e3 b942 fca3 2242
00000320: 44b9 6f40 b2b8 3943 12a5 1a43 46d8 2243
00000330: 8d20 3a42 325f a542 d302 ea41 d3eb a341
00000340: 9b49 ff42 4101 3a43 cd31 b03f c0f2 3e43
00000350: 8f09 ca42 63cd f342 0d2e 2243 748e c641
00000360: 7583 3543 e900 f542 0be3 1b43 2b98 ab40
00000370: 21f6 7540 8b08 0a43 a923 d341 7f47 1b43
00000380: c6d7 6742 02f1 1443 d22f 0743 6020 ce41
00000390: 6086 f741 aaed 4443 220c 4340 d8f4 fb42
000003a0: ec1f 3243 b6a0 e542 0379 0e43 be49 0043
000003b0: 943e 8640 c18f 9e42 b2fe 3743 cac3 4343
000003c0: 4cd0 ab42 a9e5 3842 f302 8042 c3e7 ba42
000003d0: f70d d842 f673 a942 b59f 5642 d30f 4243
000003e0: fe41 0843 c767 f542 a755 8342 0144 1142
000003f0: fa6c d042 eb33 0043 f1ef 0e43 826b 2c42
83.70545 175.70616 76.56469 71.622795 180.07639 53.839222 127.26854 75.52845
182.26317 148.6084 136.62257 80.11253 162.63911 46.868786 180.44466 118.45022
84.2261 111.67478 150.97647 68.35624 62.337788 17.628458 72.74783 22.951246
40.14804 85.12442 109.66548 41.131607 137.48738 156.48502 198.17233 54.58319
122.364334 98.474785 192.32758 9.367756 77.07492 180.51793 95.91133 64.24352
141.479 56.766556 71.14786 143.79643 101.906906 55.679737 166.9362 185.04552
142.86821 55.02809 158.42462 10.096391 87.13016 133.31482 179.2437 22.613874
87.18904 55.6796 62.754734 167.34853 109.79763 197.16978 88.47779 85.94215
13.330797 127.888916 80.78104 44.610878 157.65591 120.260925 50.78915 171.27399
2.1116111 157.0961 114.80116 68.57227 95.56278 195.68591 41.411964 152.60486
120.20224 55.09155 131.48448 91.35121 50.191143 93.95249 49.584724 188.0132
106.41562 141.11955 166.02124 60.475304 46.75964 142.1508 50.527588 96.18319
156.90779 117.64075 86.58952 89.64729 37.982235 155.71419 76.35431 123.05407
32.20277 127.205414 10.499413 185.55212 12.444314 91.16211 147.88531 142.44133
167.74785 65.03024 93.934875 141.07025 47.42942 128.45575 30.476622 46.68816
167.76173 69.868546 19.415085 90.37361 179.44281 120.84711 105.26419 28.648663
108.13882 79.58429 132.968 119.49109 31.549759 16.821604 184.32782 154.49838
141.00995 153.17758 107.443146 101.39622 71.98683 64.53281 138.28552 171.46542
74.98214 33.382584 93.49238 41.81897 115.44196 147.05247 22.671785 136.30374
7.8548036 110.83366 81.2818 97.07474 3.7408905 33.539192 2.4697795 8.822301
89.9084 194.90337 102.23186 69.19247 164.02379 186.90805 137.63339 46.30968
10.951042 29.68888 116.00007 92.61428 182.93098 21.138266 23.286856 187.26543
134.41316 100.5299 102.57391 131.38052 43.47036 183.00461 199.47542 51.512745
198.87227 94.211395 133.59988 44.664932 58.042072 44.471916 1.125223 184.04453
87.52969 196.17604 190.88124 125.273865 46.00629 32.36223 92.94523 40.66014
3.7456827 185.72147 154.6448 162.84482 46.531788 82.68593 29.251379 20.490149
127.64376 186.0049 1.3765198 190.94824 101.01867 121.901146 162.17989 24.819557
181.5135 122.50178 155.88689 5.362325 3.8431475 138.03337 26.392412 155.27928
57.960716 148.94144 135.1868 25.765808 30.940613 196.92838 3.0476155 125.97821
178.1247 114.81389 142.4727 128.28806 4.195139 79.28077 183.9949 195.7648
85.90683 46.224277 64.00576 93.45266 108.027275 84.72649 53.655964 194.06181
136.25778 122.70269 65.66729 36.31641 104.212845 128.2028 142.93727 43.10499

_log_weights f4 [800]
00000000: 0000 803f 0000 803f 0000 803f 0000 803f
00000010: 0000 803f 0000 803f 0000 803f 0000 803f
00000020: 0000 803f 0000 803f 0000 803f 0000 803f
00000030: 0000 803f 0000 803f 0000 803f 0000 803f
00000040: 0000 803f 0000 803f 0000 803f 0000 803f
00000050: 0000 803f 0000 803f 0000 803f 0000 803f
00000060: 0000 803f 0000 803f 0000 803f 0000 803f
00000070: 0000 803f 0000 803f 0000 803f 0000 803f
00000080: 0000 803f 0000 803f 0000 803f 0000 803f
00000090: 0000 803f 0000 803f 0000 803f 0000 803f
000000a0: 0000 803f 0000 803f 0000 803f 0000 803f
000000b0: 0000 803f 0000 803f 0000 803f 0000 803f
000000c0: 0000 803f 0000 803f 0000 803f 0000 803f
000000d0: 0000 803f 0000 803f 0000 803f 0000 803f
000000e0: 0000 803f 0000 803f 0000 803f 0000 803f
000000f0: 0000 803f 0000 803f 0000 803f 0000 803f
00000100: 0000 803f 0000 803f 0000 803f 0000 803f
00000110: 0000 803f 0000 803f 0000 803f 0000 803f
00000120: 0000 803f 0000 803f 0000 803f 0000 803f
00000130: 0000 803f 0000 803f 0000 803f 0000 803f
00000140: 0000 803f 0000 803f 0000 803f 0000 803f
00000150: 0000 803f 0000 803f 0000 803f 0000 803f
00000160: 0000 803f 0000 803f 0000 803f 0000 803f
00000170: 0000 803f 0000 803f 0000 803f 0000 803f
00000180: 0000 803f 0000 803f 0000 803f 0000 803f
00000190: 0000 803f 0000 803f 0000 803f 0000 803f
000001a0: 0000 803f 0000 803f 0000 803f 0000 803f
000001b0: 0000 803f 0000 803f 0000 803f 0000 803f
000001c0: 0000 803f 0000 803f 0000 803f 0000 803f
000001d0: 0000 803f 0000 803f 0000 803f 0000 803f
000001e0: 0000 803f 0000 803f 0000 803f 0000 803f
000001f0: 0000 803f 0000 803f 0000 803f 0000 803f
00000200: 0000 803f 0000 803f 0000 803f 0000 803f
00000210: 0000 803f 0000 803f 0000 803f 0000 803f
00000220: 0000 803f 0000 803f 0000 803f 0000 803f
00000230: 0000 803f 0000 803f 0000 803f 0000 803f
00000240: 0000 803f 0000 803f 0000 803f 0000 803f
00000250: 0000 803f 0000 803f 0000 803f 0000 803f
00000260: 0000 803f 0000 803f 0000 803f 0000 803f
00000270: 0000 803f 0000 803f 0000 803f 0000 803f
00000280: 0000 803f 0000 803f 0000 803f 0000 803f
00000290: 0000 803f 0000 803f 0000 803f 0000 803f
000002a0: 0000 803f 0000 803f 0000 803f 0000 803f
000002b0: 0000 803f 0000 803f 0000 803f 0000 803f
000002c0: 0000 803f 0000 803f 0000 803f 0000 803f
000002d0: 0000 803f 0000 803f 0000 803f 0000 803f
000002e0: 0000 803f 0000 803f 0000 803f 0000 803f
000002f0: 0000 803f 0000 803f 0000 803f 0000 803f
00000300: 0000 803f 0000 803f 0000 803f 0000 803f
00000310: 0000 803f 0000 803f 0000 803f 0000 803f
00000320: 0000 803f 0000 803f 0000 803f 0000 803f
00000330: 0000 803f 0000 803f 0000 803f 0000 803f
00000340: 0000 803f 0000 803f 0000 803f 0000 803f
00000350: 0000 803f 0000 803f 0000 803f 0000 803f
00000360: 0000 803f 0000 803f 0000 803f 0000 803f
00000370: 0000 803f 0000 803f 0000 803f 0000 803f
00000380: 0000 803f 0000 803f 0000 803f 0000 803f
00000390: 0000 803f 0000 803f 0000 803f 0000 803f
000003a0: 0000 803f 0000 803f 0000 803f 0000 803f
000003b0: 0000 803f 0000 803f 0000 803f 0000 803f
000003c0: 0000 803f 0000 803f 0000 803f 0000 803f
000003d0: 0000 803f 0000 803f 0000 803f 0000 803f
000003e0: 0000 803f 0000 803f 0000 803f 0000 803f
000003f0: 0000 803f 0000 803f 0000 803f 0000 803f
1.0 1.0 1.0 1.0 1.0 1.0 1.0 1.0
1.0 1.0 1.0 1.0 1.0 1.0 1.0 1.0
1.0 1.0 1.0 1.0 1.0 1.0 1.0 1.0
1.0 1.0 1.0 1.0 1.0 1.0 1.0 1.0
1.0 1.0 1.0 1.0 1.0 1.0 1.0 1.0
1.0 1.0 1.0 1.0 1.0 1.0 1.0 1.0
1.0 1.0 1.0 1.0 1.0 1.0 1.0 1.0
1.0 1.0 1.0 1.0 1.0 1.0 1.0 1.0
1.0 1.0 1.0 1.0 1.0 1.0 1.0 1.0
1.0 1.0 1.0 1.0 1.0 1.0 1.0 1.0
1.0 1.0 1.0 1.0 1.0 1.0 1.0 1.0
1.0 1.0 1.0 1.0 1.0 1.0 1.0 1.0
1.0 1.0 1.0 1.0 1.0 1.0 1.0 1.0
1.0 1.0 1.0 1.0 1.0 1.0 1.0 1.0
1.0 1.0 1.0 1.0 1.0 1.0 1.0 1.0
1.0 1.0 1.0 1.0 1.0 1.0 1.0 1.0
1.0 1.0 1.0 1.0 1.0 1.0 1.0 1.0
1.0 1.0 1.0 1.0 1.0 1.0 1.0 1.0
1.0 1.0 1.0 1.0 1.0 1.0 1.0 1.0
1.0 1.0 1.0 1.0 1.0 1.0 1.0 1.0
1.0 1.0 1.0 1.0 1.0 1.0 1.0 1.0
1.0 1.0 1.0 1.0 1.0 1.0 1.0 1.0
1.0 1.0 1.0 1.0 1.0 1.0 1.0 1.0
1.0 1.0 1.0 1.0 1.0 1.0 1.0 1.0
1.0 1.0 1.0 1.0 1.0 1.0 1.0 1.0
1.0 1.0 1.0 1.0 1.0 1.0 1.0 1.0
1.0 1.0 1.0 1.0 1.0 1.0 1.0 1.0
1.0 1.0 1.0 1.0 1.0 1.0 1.0 1.0
1.0 1.0 1.0 1.0 1.0 1.0 1.0 1.0
1.0 1.0 1.0 1.0 1.0 1.0 1.0 1.0
1.0 1.0 1.0 1.0 1.0 1.0 1.0 1.0
1.0 1.0 1.0 1.0 1.0 1.0 1.0 1.0

logits f4 [800]
00000000: 57e8 d5c0 57e8 d5c0 57e8 d5c0 57e8 d5c0
00000010: 57e8 d5c0 57e8 d5c0 57e8 d5c0 57e8 d5c0
00000020: 57e8 d5c0 57e8 d5c0 57e8 d5c0 57e8 d5c0
00000030: 57e8 d5c0 57e8 d5c0 57e8 d5c0 57e8 d5c0
00000040: 57e8 d5c0 57e8 d5c0 57e8 d5c0 57e8 d5c0
00000050: 57e8 d5c0 57e8 d5c0 57e8 d5c0 57e8 d5c0
00000060: 57e8 d5c0 57e8 d5c0 57e8 d5c0 57e8 d5c0
00000070: 57e8 d5c0 57e8 d5c0 57e8 d5c0 57e8 d5c0
00000080: 57e8 d5c0 57e8 d5c0 57e8 d5c0 57e8 d5c0
00000090: 57e8 d5c0 57e8 d5c0 57e8 d5c0 57e8 d5c0
000000a0: 57e8 d5c0 57e8 d5c0 57e8 d5c0 57e8 d5c0
000000b0: 57e8 d5c0 57e8 d5c0 57e8 d5c0 57e8 d5c0
000000c0: 57e8 d5c0 57e8 d5c0 57e8 d5c0 57e8 d5c0
000000d0: 57e8 d5c0 57e8 d5c0 57e8 d5c0 57e8 d5c0
000000e0: 57e8 d5c0 57e8 d5c0 57e8 d5c0 57e8 d5c0
000000f0: 57e8 d5c0 57e8 d5c0 57e8 d5c0 57e8 d5c0
00000100: 57e8 d5c0 57e8 d5c0 57e8 d5c0 57e8 d5c0
00000110: 57e8 d5c0 57e8 d5c0 57e8 d5c0 57e8 d5c0
00000120: 57e8 d5c0 57e8 d5c0 57e8 d5c0 57e8 d5c0
00000130: 57e8 d5c0 57e8 d5c0 57e8 d5c0 57e8 d5c0
00000140: 57e8 d5c0 57e8 d5c0 57e8 d5c0 57e8 d5c0
00000150: 57e8 d5c0 57e8 d5c0 57e8 d5c0 57e8 d5c0
00000160: 57e8 d5c0 57e8 d5c0 57e8 d5c0 57e8 d5c0
00000170: 57e8 d5c0 57e8 d5c0 57e8 d5c0 57e8 d5c0
00000180: 57e8 d5c0 57e8 d5c0 57e8 d5c0 57e8 d5c0
00000190: 57e8 d5c0 57e8 d5c0 57e8 d5c0 57e8 d5c0
000001a0: 57e8 d5c0 57e8 d5c0 57e8 d5c0 57e8 d5c0
000001b0: 57e8 d5c0 57e8 d5c0 57e8 d5c0 57e8 d5c0
000001c0: 57e8 d5c0 57e8 d5c0 57e8 d5c0 57e8 d5c0
000001d0: 57e8 d5c0 57e8 d5c0 57e8 d5c0 57e8 d5c0
000001e0: 57e8 d5c0 57e8 d5c0 57e8 d5c0 57e8 d5c0
000001f0: 57e8 d5c0 57e8 d5c0 57e8 d5c0 57e8 d5c0
00000200: 57e8 d5c0 57e8 d5c0 57e8 d5c0 57e8 d5c0
00000210: 57e8 d5c0 57e8 d5c0 57e8 d5c0 57e8 d5c0
00000220: 57e8 d5c0 57e8 d5c0 57e8 d5c0 57e8 d5c0
00000230: 57e8 d5c0 57e8 d5c0 57e8 d5c0 57e8 d5c0
00000240: 57e8 d5c0 57e8 d5c0 57e8 d5c0 57e8 d5c0
00000250: 57e8 d5c0 57e8 d5c0 57e8 d5c0 57e8 d5c0
00000260: 57e8 d5c0 57e8 d5c0 57e8 d5c0 57e8 d5c0
00000270: 57e8 d5c0 57e8 d5c0 57e8 d5c0 57e8 d5c0
00000280: 57e8 d5c0 57e8 d5c0 57e8 d5c0 57e8 d5c0
00000290: 57e8 d5c0 57e8 d5c0 57e8 d5c0 57e8 d5c0
000002a0: 57e8 d5c0 57e8 d5c0 57e8 d5c0 57e8 d5c0
000002b0: 57e8 d5c0 57e8 d5c0 57e8 d5c0 57e8 d5c0
000002c0: 57e8 d5c0 57e8 d5c0 57e8 d5c0 57e8 d5c0
000002d0: 57e8 d5c0 57e8 d5c0 57e8 d5c0 57e8 d5c0
000002e0: 57e8 d5c0 57e8 d5c0 57e8 d5c0 57e8 d5c0
000002f0: 57e8 d5c0 57e8 d5c0 57e8 d5c0 57e8 d5c0
00000300: 57e8 d5c0 57e8 d5c0 57e8 d5c0 57e8 d5c0
00000310: 57e8 d5c0 57e8 d5c0 57e8 d5c0 57e8 d5c0
00000320: 57e8 d5c0 57e8 d5c0 57e8 d5c0 57e8 d5c0
00000330: 57e8 d5c0 57e8 d5c0 57e8 d5c0 57e8 d5c0
00000340: 57e8 d5c0 57e8 d5c0 57e8 d5c0 57e8 d5c0
00000350: 57e8 d5c0 57e8 d5c0 57e8 d5c0 57e8 d5c0
00000360: 57e8 d5c0 57e8 d5c0 57e8 d5c0 57e8 d5c0
00000370: 57e8 d5c0 57e8 d5c0 57e8 d5c0 57e8 d5c0
00000380: 57e8 d5c0 57e8 d5c0 57e8 d5c0 57e8 d5c0
00000390: 57e8 d5c0 57e8 d5c0 57e8 d5c0 57e8 d5c0
000003a0: 57e8 d5c0 57e8 d5c0 57e8 d5c0 57e8 d5c0
000003b0: 57e8 d5c0 57e8 d5c0 57e8 d5c0 57e8 d5c0
000003c0: 57e8 d5c0 57e8 d5c0 57e8 d5c0 57e8 d5c0
000003d0: 57e8 d5c0 57e8 d5c0 57e8 d5c0 57e8 d5c0
000003e0: 57e8 d5c0 57e8 d5c0 57e8 d5c0 57e8 d5c0
000003f0: 57e8 d5c0 57e8 d5c0 57e8 d5c0 57e8 d5c0
-6.684612 -6.684612 -6.684612 -6.684612 -6.684612 -6.684612 -6.684612 -6.684612
-6.684612 -6.684612 -6.684612 -6.684612 -6.684612 -6.684612 -6.684612 -6.684612
-6.684612 -6.684612 -6.684612 -6.684612 -6.684612 -6.684612 -6.684612 -6.684612
-6.684612 -6.684612 -6.684612 -6.684612 -6.684612 -6.684612 -6.684612 -6.684612
-6.684612 -6.684612 -6.684612 -6.684612 -6.684612 -6.684612 -6.684612 -6.684612
-6.684612 -6.684612 -6.684612 -6.684612 -6.684612 -6.684612 -6.684612 -6.684612
-6.684612 -6.684612 -6.684612 -6.684612 -6.684612 -6.684612 -6.684612 -6.684612
-6.684612 -6.684612 -6.684612 -6.684612 -6.684612 -6.684612 -6.684612 -6.684612
-6.684612 -6.684612 -6.684612 -6.684612 -6.684612 -6.684612 -6.684612 -6.684612
-6.684612 -6.684612 -6.684612 -6.684612 -6.684612 -6.684612 -6.684612 -6.684612
-6.684612 -6.684612 -6.684612 -6.684612 -6.684612 -6.684612 -6.684612 -6.684612
-6.684612 -6.684612 -6.684612 -6.684612 -6.684612 -6.684612 -6.684612 -6.684612
-6.684612 -6.684612 -6.684612 -6.684612 -6.684612 -6.684612 -6.684612 -6.684612
-6.684612 -6.684612 -6.684612 -6.684612 -6.684612 -6.684612 -6.684612 -6.684612
-6.684612 -6.684612 -6.684612 -6.684612 -6.684612 -6.684612 -6.684612 -6.684612
-6.684612 -6.684612 -6.684612 -6.684612 -6.684612 -6.684612 -6.684612 -6.684612
-6.684612 -6.684612 -6.684612 -6.684612 -6.684612 -6.684612 -6.684612 -6.684612
-6.684612 -6.684612 -6.684612 -6.684612 -6.684612 -6.684612 -6.684612 -6.684612
-6.684612 -6.684612 -6.684612 -6.684612 -6.684612 -6.684612 -6.684612 -6.684612
-6.684612 -6.684612 -6.684612 -6.684612 -6.684612 -6.684612 -6.684612 -6.684612
-6.684612 -6.684612 -6.684612 -6.684612 -6.684612 -6.684612 -6.684612 -6.684612
-6.684612 -6.684612 -6.684612 -6.684612 -6.684612 -6.684612 -6.684612 -6.684612
-6.684612 -6.684612 -6.684612 -6.684612 -6.684612 -6.684612 -6.684612 -6.684612
-6.684612 -6.684612 -6.684612 -6.684612 -6.684612 -6.684612 -6.684612 -6.684612
-6.684612 -6.684612 -6.684612 -6.684612 -6.684612 -6.684612 -6.684612 -6.684612
-6.684612 -6.684612 -6.684612 -6.684612 -6.684612 -6.684612 -6.684612 -6.684612
-6.684612 -6.684612 -6.684612 -6.684612 -6.684612 -6.684612 -6.684612 -6.684612
-6.684612 -6.684612 -6.684612 -6.684612 -6.684612 -6.684612 -6.684612 -6.684612
-6.684612 -6.684612 -6.684612 -6.684612 -6.684612 -6.684612 -6.684612 -6.684612
-6.684612 -6.684612 -6.684612 -6.684612 -6.684612 -6.684612 -6.684612 -6.684612
-6.684612 -6.684612 -6.684612 -6.684612 -6.684612 -6.684612 -6.684612 -6.684612
-6.684612 -6.684612 -6.684612 -6.684612 -6.684612 -6.684612 -6.684612 -6.684612

probs f4 [800]
00000000: 0ad7 a33a 0ad7 a33a 0ad7 a33a 0ad7 a33a
00000010: 0ad7 a33a 0ad7 a33a 0ad7 a33a 0ad7 a33a
00000020: 0ad7 a33a 0ad7 a33a 0ad7 a33a 0ad7 a33a
00000030: 0ad7 a33a 0ad7 a33a 0ad7 a33a 0ad7 a33a
00000040: 0ad7 a33a 0ad7 a33a 0ad7 a33a 0ad7 a33a
00000050: 0ad7 a33a 0ad7 a33a 0ad7 a33a 0ad7 a33a
00000060: 0ad7 a33a 0ad7 a33a 0ad7 a33a 0ad7 a33a
00000070: 0ad7 a33a 0ad7 a33a 0ad7 a33a 0ad7 a33a
00000080: 0ad7 a33a 0ad7 a33a 0ad7 a33a 0ad7 a33a
00000090: 0ad7 a33a 0ad7 a33a 0ad7 a33a 0ad7 a33a
000000a0: 0ad7 a33a 0ad7 a33a 0ad7 a33a 0ad7 a33a
000000b0: 0ad7 a33a 0ad7 a33a 0ad7 a33a 0ad7 a33a
000000c0: 0ad7 a33a 0ad7 a33a 0ad7 a33a 0ad7 a33a
000000d0: 0ad7 a33a 0ad7 a33a 0ad7 a33a 0ad7 a33a
000000e0: 0ad7 a33a 0ad7 a33a 0ad7 a33a 0ad7 a33a
000000f0: 0ad7 a33a 0ad7 a33a 0ad7 a33a 0ad7 a33a
00000100: 0ad7 a33a 0ad7 a33a 0ad7 a33a 0ad7 a33a
00000110: 0ad7 a33a 0ad7 a33a 0ad7 a33a 0ad7 a33a
00000120: 0ad7 a33a 0ad7 a33a 0ad7 a33a 0ad7 a33a
00000130: 0ad7 a33a 0ad7 a33a 0ad7 a33a 0ad7 a33a
00000140: 0ad7 a33a 0ad7 a33a 0ad7 a33a 0ad7 a33a
00000150: 0ad7 a33a 0ad7 a33a 0ad7 a33a 0ad7 a33a
00000160: 0ad7 a33a 0ad7 a33a 0ad7 a33a 0ad7 a33a
00000170: 0ad7 a33a 0ad7 a33a 0ad7 a33a 0ad7 a33a
00000180: 0ad7 a33a 0ad7 a33a 0ad7 a33a 0ad7 a33a
00000190: 0ad7 a33a 0ad7 a33a 0ad7 a33a 0ad7 a33a
000001a0: 0ad7 a33a 0ad7 a33a 0ad7 a33a 0ad7 a33a
000001b0: 0ad7 a33a 0ad7 a33a 0ad7 a33a 0ad7 a33a
000001c0: 0ad7 a33a 0ad7 a33a 0ad7 a33a 0ad7 a33a
000001d0: 0ad7 a33a 0ad7 a33a 0ad7 a33a 0ad7 a33a
000001e0: 0ad7 a33a 0ad7 a33a 0ad7 a33a 0ad7 a33a
000001f0: 0ad7 a33a 0ad7 a33a 0ad7 a33a 0ad7 a33a
00000200: 0ad7 a33a 0ad7 a33a 0ad7 a33a 0ad7 a33a
00000210: 0ad7 a33a 0ad7 a33a 0ad7 a33a 0ad7 a33a
00000220: 0ad7 a33a 0ad7 a33a 0ad7 a33a 0ad7 a33a
00000230: 0ad7 a33a 0ad7 a33a 0ad7 a33a 0ad7 a33a
00000240: 0ad7 a33a 0ad7 a33a 0ad7 a33a 0ad7 a33a
00000250: 0ad7 a33a 0ad7 a33a 0ad7 a33a 0ad7 a33a
00000260: 0ad7 a33a 0ad7 a33a 0ad7 a33a 0ad7 a33a
00000270: 0ad7 a33a 0ad7 a33a 0ad7 a33a 0ad7 a33a
00000280: 0ad7 a33a 0ad7 a33a 0ad7 a33a 0ad7 a33a
00000290: 0ad7 a33a 0ad7 a33a 0ad7 a33a 0ad7 a33a
000002a0: 0ad7 a33a 0ad7 a33a 0ad7 a33a 0ad7 a33a
000002b0: 0ad7 a33a 0ad7 a33a 0ad7 a33a 0ad7 a33a
000002c0: 0ad7 a33a 0ad7 a33a 0ad7 a33a 0ad7 a33a
000002d0: 0ad7 a33a 0ad7 a33a 0ad7 a33a 0ad7 a33a
000002e0: 0ad7 a33a 0ad7 a33a 0ad7 a33a 0ad7 a33a
000002f0: 0ad7 a33a 0ad7 a33a 0ad7 a33a 0ad7 a33a
00000300: 0ad7 a33a 0ad7 a33a 0ad7 a33a 0ad7 a33a
00000310: 0ad7 a33a 0ad7 a33a 0ad7 a33a 0ad7 a33a
00000320: 0ad7 a33a 0ad7 a33a 0ad7 a33a 0ad7 a33a
00000330: 0ad7 a33a 0ad7 a33a 0ad7 a33a 0ad7 a33a
00000340: 0ad7 a33a 0ad7 a33a 0ad7 a33a 0ad7 a33a
00000350: 0ad7 a33a 0ad7 a33a 0ad7 a33a 0ad7 a33a
00000360: 0ad7 a33a 0ad7 a33a 0ad7 a33a 0ad7 a33a
00000370: 0ad7 a33a 0ad7 a33a 0ad7 a33a 0ad7 a33a
00000380: 0ad7 a33a 0ad7 a33a 0ad7 a33a 0ad7 a33a
00000390: 0ad7 a33a 0ad7 a33a 0ad7 a33a 0ad7 a33a
000003a0: 0ad7 a33a 0ad7 a33a 0ad7 a33a 0ad7 a33a
000003b0: 0ad7 a33a 0ad7 a33a 0ad7 a33a 0ad7 a33a
000003c0: 0ad7 a33a 0ad7 a33a 0ad7 a33a 0ad7 a33a
000003d0: 0ad7 a33a 0ad7 a33a 0ad7 a33a 0ad7 a33a
000003e0: 0ad7 a33a 0ad7 a33a 0ad7 a33a 0ad7 a33a
000003f0: 0ad7 a33a 0ad7 a33a 0ad7 a33a 0ad7 a33a
0.00125 0.00125 0.00125 0.00125 0.00125 0.00125 0.00125 0.00125
0.00125 0.00125 0.00125 0.00125 0.00125 0.00125 0.00125 0.00125
0.00125 0.00125 0.00125 0.00125 0.00125 0.00125 0.00125 0.00125
0.00125 0.00125 0.00125 0.00125 0.00125 0.00125 0.00125 0.00125
0.00125 0.00125 0.00125 0.00125 0.00125 0.00125 0.00125 0.00125
0.00125 0.00125 0.00125 0.00125 0.00125 0.00125 0.00125 0.00125
0.00125 0.00125 0.00125 0.00125 0.00125 0.00125 0.00125 0.00125
0.00125 0.00125 0.00125 0.00125 0.00125 0.00125 0.00125 0.00125
0.00125 0.00125 0.00125 0.00125 0.00125 0.00125 0.00125 0.00125
0.00125 0.00125 0.00125 0.00125 0.00125 0.00125 0.00125 0.00125
0.00125 0.00125 0.00125 0.00125 0.00125 0.00125 0.00125 0.00125
0.00125 0.00125 0.00125 0.00125 0.00125 0.00125 0.00125 0.00125
0.00125 0.00125 0.00125 0.00125 0.00125 0.00125 0.00125 0.00125
0.00125 0.00125 0.00125 0.00125 0.00125 0.00125 0.00125 0.00125
0.00125 0.00125 0.00125 0.00125 0.00125 0.00125 0.00125 0.00125
0.00125 0.00125 0.00125 0.00125 0.00125 0.00125 0.00125 0.00125
0.00125 0.00125 0.00125 0.00125 0.00125 0.00125 0.00125 0.00125
0.00125 0.00125 0.00125 0.00125 0.00125 0.00125 0.00125 0.00125
0.00125 0.00125 0.00125 0.00125 0.00125 0.00125 0.00125 0.00125
0.00125 0.00125 0.00125 0.00125 0.00125 0.00125 0.00125 0.00125
0.00125 0.00125 0.00125 0.00125 0.00125 0.00125 0.00125 0.00125
0.00125 0.00125 0.00125 0.00125 0.00125 0.00125 0.00125 0.00125
0.00125 0.00125 0.00125 0.00125 0.00125 0.00125 0.00125 0.00125
0.00125 0.00125 0.00125 0.00125 0.00125 0.00125 0.00125 0.00125
0.00125 0.00125 0.00125 0.00125 0.00125 0.00125 0.00125 0.00125
0.00125 0.00125 0.00125 0.00125 0.00125 0.00125 0.00125 0.00125
0.00125 0.00125 0.00125 0.00125 0.00125 0.00125 0.00125 0.00125
0.00125 0.00125 0.00125 0.00125 0.00125 0.00125 0.00125 0.00125
0.00125 0.00125 0.00125 0.00125 0.00125 0.00125 0.00125 0.00125
0.00125 0.00125 0.00125 0.00125 0.00125 0.00125 0.00125 0.00125
0.00125 0.00125 0.00125 0.00125 0.00125 0.00125 0.00125 0.00125
0.00125 0.00125 0.00125 0.00125 0.00125 0.00125 0.00125 0.00125

_shift f4 [8]
00000000: 1882 dabf 3f37 e1bf dcb9 e3bf c180 d4bf
00000010: b335 d6bf db4d d4bf 5277 dbbf 31d3 e0bf
-1.7070951 -1.7594985 -1.7791095 -1.6601793 -1.6735138 -1.658626 -1.7145789 -1.756445

_scale f4 [8]
00000000: 1105 8d3c 375e 8e3c d469 923c 129e 893c
00000010: b20f 8e3c 0328 8a3c 7d06 8e3c c00b 933c
0.01721433 0.01737891 0.017872728 0.016799007 0.017341468 0.016864782 0.017337078 0.017949939

weight f4 [50, 8]
00000000: f71d 7a3d b30e 213e a8bf 1abe 2d4f 903e
00000010: 0d09 7ebe aeb5 833a ceb8 a23e c000 b43e
00000020: 598a 1abc 5ce1 eb3d 580f 2b3d 10be 29be
00000030: 3d2a fabd 861e c43d c4bf 7bbe 73f0 6e3d
00000040: 957f 6c3e 3831 b6ba d487 ea3e 7e9b bebc
00000050: f442 243e bd43 b33e d953 ddbd 19bc 443e
00000060: 5c2b a9bd 08bf 0cbd 27c8 a1bd 5dce 7c3c
00000070: 4bc4 08be d9b6 a93d a344 5a3c 1c7e 653e
00000080: ec10 283b 224d 7e3d 774f 5bbe 505d 6bbe
00000090: 3e0f 023e 8a4d 393d 98fd 10be 6bd0 f4bd
000000a0: 6366 e93d e014 9cbc ddae b33d 2808 bc3d
000000b0: b392 173e 77c6 703e 09aa b1bd 34a4 1c3e
000000c0: 781d 6d3e 41f7 923d 0ee5 7fbb 4997 393e
000000d0: 72af a93e 7d7e 41bd c218 0ebf 78c2 1d3e
000000e0: a8a8 acbe 65bd b93b 947f 26be 2af5 6e3e
000000f0: 3c89 a8be 0d84 5b3e bb17 b33e 8982 923d
00000100: 25a0 5abd 000e ab3e d3b7 1abe 7117 e8bc
00000110: dd89 1ebe b4e7 47bd c45e 9d3d e36a 413d
00000120: 8255 713a 431e aabe 8f34 37bd b696 2bbc
00000130: 0fdb 593d c4b4 8a3e d7f3 af3e 8bca 56be
00000140: 16df e2bd 683f bbbd e569 b1be c93d 79be
00000150: d0e5 a93e 3617 533e 2f78 423e 5633 493e
00000160: 9b6d 95be b517 8f3c d239 8a3e bb9d 80be
00000170: dba3 983e bd50 be3d c0b5 7e3e c817 1bbe
00000180: ec08 323e 0bf6 24be cb2d 53bd ff96 133e
00000190: ae23 a5bb 94f1 c63e 43e1 b13e 01af a43e
000001a0: 549e 6a3e 7b48 3b3e 4372 afbd bf14 b8be
000001b0: ff0b 20be ddc3 37bd 18b6 cfbe 4910 393e
000001c0: 3087 7e3e 9ca9 693d 9ce8 ae3d 5004 9f3e
000001d0: a7dd 033e 34be 9ebe 0166 83be 8491 1f3e
000001e0: 4775 013e bae9 253e a1c9 b4be a40e a7be
000001f0: fd02 5e3e 9493 673e 2bc5 a3be af6c 093e
00000200: 70f3 27be 3bc5 943e d4a1 8e3d 53fd b23e
00000210: ce7b b2be 5443 aebe 6cc6 743e 91b6 a03e
00000220: b094 003e 4388 213e 6a10 b3be 08b8 823e
00000230: ace8 aabe 95c2 a13d de25 6dbe d4cc 0fbe
00000240: 5248 b53c 4825 dcbd a5ad a6bd 1148 c2be
00000250: e45d 52be 8c3d 0c3e 403e 19be b442 5cbe
00000260: b475 c8bd 61f1 0fbe 33fd 91be 55b9 863e
00000270: f474 0f3e 3cd1 4d3e 61c4 45be b7e6 f03d
00000280: ccae bdbd c446 9dbd 12f3 e63d 5a89 253e
00000290: 2701 bcbe 4941 d4be f4f4 b1be c54f 883e
000002a0: 6f1d 84be 7465 9f3d 0382 7e3e b03e df3d
000002b0: b8b2 9c3d 919b b43e badb 6b3e ce9e 4bbe
000002c0: b676 013e 8651 2f3e 86a4 9f3e 221a b4be
000002d0: be0b 443e 0339 d2bd 0b42 b1be f2b9 a03d
000002e0: 9672 84bd caee 803d f016 8abe e938 88be
000002f0: 3cc1 f5bc 773c f3bd 60be 533e dfb6 f93c
00000300: dd4d 003e 4725 d63d e7e4 1fbd 1546 613e
00000310: dd44 9e3c 3ee7 873d 30e1 e8bd e64e a63a
00000320: 24af ef3c 77fa 063d 02f2 a9be 4ca5 8f3d
00000330: 9971 88be 77c5 9bbd 71d1 513e 63be 7bbe
00000340: 2f1b 01be 8b67 2abd bdd0 12be 3a3f 123e
00000350: 0f93 4e3d 4e72 943e c266 79be 5f65 ccbc
00000360: dcad c13e fbfb 7b3e caae 603c 5615 023c
00000370: 03e0 803d 23ae 5f3e b819 a2be b216 52be
00000380: 9dfc d63b c8ee cabc f7f8 aabe ffbe 50be
00000390: 8ed1 123e e596 f5bd bde3 793e 5e1a 8f3e
000003a0: aa76 f1bc b5b1 9fbd 81d7 e5bd 4e74 92bc
000003b0: 16cc 833d 9545 8abe 250d adbd 7292 96be
000003c0: 0000 653d 76f0 fdbd 277e a13e 3aa7 babd
000003d0: 2b67 4fbe 4ff1 2d3e bbe3 573d 23b2 7a3e
000003e0: 0449 293d 21a4 b5be 28cc 153e 2945 3bbe
000003f0: b802 20be 00ea 653e dc05 843e 7b1a 9fbe
0.061063733 0.15728264 -0.15112174 0.28185406 -0.2480814 0.0010048652 0.3178162 0.35156822
-0.009432399 0.11517593 0.04176268 -0.1657641 -0.122150876 0.095761344 -0.24584872 0.05833478
0.23095544 -0.0013900166 0.45806754 -0.023267504 0.16041166 0.35012618 -0.10807008 0.19212379
-0.08260223 -0.03436187 -0.07899504 0.01543006 -0.1335613 0.082868285 0.013322028 0.22411388
0.0025644852 0.06208528 -0.21417032 -0.22984815 0.12701127 0.045239963 -0.14159238 -0.11953815
0.11396482 -0.019052923 0.08773587 0.09181243 0.14802055 0.23513208 -0.0867501 0.15297014
0.23155773 0.07176066 -0.003904644 0.18124117 0.33141667 -0.04723977 -0.5550653 0.15406215
-0.33722425 0.0056683295 -0.16259605 0.2333571 -0.32917202 0.21437092 0.34979042 0.07153804
-0.053375382 0.3340912 -0.15109186 -0.02833149 -0.15482278 -0.048804954 0.07684091 0.047221076
0.0009206162 -0.33226213 -0.04472786 -0.010472944 0.053187426 0.27091038 0.34365723 -0.20975702
-0.110777065 -0.09142953 -0.34651104 -0.24339975 0.33183146 0.20614323 0.18991159 0.1964849
-0.29185185 0.01746736 0.26997238 -0.2512034 0.29812512 0.09292743 0.2487402 -0.1514579
0.17386216 -0.16109483 -0.051557343 0.14413069 -0.0050396537 0.38856184 0.34742174 0.32164767
0.2291196 0.18289368 -0.085667156 -0.35953328 -0.15629576 -0.044864524 -0.40568614 0.18072619
0.24856257 0.057046518 0.085404605 0.31057978 0.12877522 -0.31004488 -0.2566376 0.15582854
0.12642394 0.16202441 -0.3531008 -0.32628357 0.21680827 0.2261489 -0.31986365 0.13420366
-0.16401458 0.29056725 0.0696446 0.34958896 -0.3486008 -0.34035742 0.23903817 0.31389287
0.1255672 0.15774636 -0.3497346 0.2553103 -0.3338064 0.07898442 -0.23158976 -0.1404298
0.022129212 -0.10749298 -0.08138589 -0.37945607 -0.20543629 0.13695353 -0.14965153 -0.2150982
-0.09788075 -0.14056922 -0.28513488 0.26313272 0.14009458 0.20099348 -0.19313194 0.11762755
-0.092618555 -0.07679513 0.11276831 0.16165677 -0.3671963 -0.4145606 -0.34757197 0.2662336
-0.25803706 0.077830225 0.24854283 0.109006286 0.076512754 0.35274938 0.23033038 -0.19884798
0.12642941 0.17120942 0.3118021 -0.35176188 0.19145104 -0.1026478 -0.346207 0.07847966
-0.06467168 0.062955454 -0.26970625 -0.2660592 -0.029999368 -0.11876767 0.20678091 0.030482708
0.12529702 0.10456329 -0.039036658 0.2199939 0.019319946 0.06635903 -0.11371076 0.0012688308
0.029258318 0.032953706 -0.3319245 0.0701395 -0.26649168 -0.07606023 0.20490052 -0.24584346
-0.12608026 -0.041602653 -0.1433744 0.14281932 0.050433215 0.28993458 -0.24355605 -0.024950681
0.37827957 0.24607842 0.013713548 0.007939657 0.06292727 0.21843772 -0.31660247 -0.2051647
0.0065608756 -0.024772063 -0.3339307 -0.20385359 0.14337751 -0.119916715 0.24403282 0.27949804
-0.029475529 -0.07797567 -0.11222745 -0.017877724 0.06435411 -0.27006212 -0.08449773 -0.29408604
0.055908203 -0.1239938 0.3154156 -0.09113927 -0.20254199 0.16986583 0.052707415 0.24482016
0.0413294 -0.35476783 0.1462866 -0.18288101 -0.15626037 0.22452545 0.2578572 -0.3107489

bias f4 [50]
00000000: fa5d 8bbd c32a 7c3e 7ab1 a43e ba43 8e3e
00000010: 0d7d bdbe 5d16 3cbe a970 0fbe b95b 8fbe
00000020: 7550 cc3e fa26 7fbd b6d0 12be 5a25 37be
00000030: 1e07 86be f789 6f3d 44ae b4be b765 c3be
00000040: d3e6 e3be 15c4 e33d 5430 943e 991c 6ebe
00000050: 46a3 b93d 6ebe 753e aa14 a33d 1a8b cebd
00000060: 19b5 ed3d 197a 73bd e630 eb3d a3fd 92be
00000070: ea43 353e ef26 943e f2f1 54be 1cea 803e
00000080: 50bd bc3e c901 8cbd 75f5 c0bc 947e 413e
00000090: 3b6e 9ebe 69a6 183e 2b43 463d 1cab 493e
000000a0: 43b4 8bbe 2e05 87be 92b1 1c3e 9cc1 2f3e
000000b0: f1e3 9abe 83fa 30be a82b 44be 7b70 77be
000000c0: 7f8d 1fbe efd0 ab3e
-0.06805034 0.24625687 0.32166654 0.27786046 -0.3700947 -0.18367906 -0.1400782 -0.27999666
0.39905134 -0.06229303 -0.1433743 -0.17885342 -0.26177305 0.058481183 -0.35289204 -0.3816354
-0.44512042 0.11121384 0.2894312 -0.23253097 0.09064345 0.23998424 0.07962926 -0.10085125
0.11606807 -0.059442613 0.11483936 -0.28709134 0.17701688 0.28935954 -0.2079542 0.2517861
0.36863184 -0.06836278 -0.023554543 0.18895942 -0.30943474 0.1490723 0.0484039 0.1969418
-0.27285966 -0.2637114 0.15302113 0.171637 -0.3025203 -0.17283063 -0.19157279 -0.24164002
-0.1558132 0.3355784

mask f4 [50, 8]
00000000: 0000 803f 0000 0000 0000 0000 0000 0000
00000010: 0000 0000 0000 0000 0000 0000 0000 0000
00000020: 0000 803f 0000 803f 0000 0000 0000 0000
00000030: 0000 0000 0000 0000 0000 0000 0000 0000
00000040: 0000 803f 0000 803f 0000 803f 0000 0000
00000050: 0000 0000 0000 0000 0000 0000 0000 0000
00000060: 0000 803f 0000 803f 0000 803f 0000 803f
00000070: 0000 0000 0000 0000 0000 0000 0000 0000
00000080: 0000 803f 0000 803f 0000 803f 0000 803f
00000090: 0000 803f 0000 0000 0000 0000 0000 0000
000000a0: 0000 803f 0000 803f 0000 803f 0000 803f
000000b0: 0000 803f 0000 803f 0000 0000 0000 0000
000000c0: 0000 803f 0000 803f 0000 803f 0000 803f
000000d0: 0000 803f 0000 803f 0000 803f 0000 0000
000000e0: 0000 803f 0000 0000 0000 0000 0000 0000
000000f0: 0000 0000 0000 0000 0000 0000 0000 0000
00000100: 0000 803f 0000 803f 0000 0000 0000 0000
00000110: 0000 0000 0000 0000 0000 0000 0000 0000
00000120: 0000 803f 0000 803f 0000 803f 0000 0000
00000130: 0000 0000 0000 0000 0000 0000 0000 0000
00000140: 0000 803f 0000 803f 0000 803f 0000 803f
00000150: 0000 0000 0000 0000 0000 0000 0000 0000
00000160: 0000 803f 0000 803f 0000 803f 0000 803f
00000170: 0000 803f 0000 0000 0000 0000 0000 0000
00000180: 0000 803f 0000 803f 0000 803f 0000 803f
00000190: 0000 803f 0000 803f 0000 0000 0000 0000
000001a0: 0000 803f 0000 803f 0000 803f 0000 803f
000001b0: 0000 803f 0000 803f 0000 803f 0000 0000
000001c0: 0000 803f 0000 0000 0000 0000 0000 0000
000001d0: 0000 0000 0000 0000 0000 0000 0000 0000
000001e0: 0000 803f 0000 803f 0000 0000 0000 0000
000001f0: 0000 0000 0000 0000 0000 0000 0000 0000
00000200: 0000 803f 0000 803f 0000 803f 0000 0000
00000210: 0000 0000 0000 0000 0000 0000 0000 0000
00000220: 0000 803f 0000 803f 0000 803f 0000 803f
00000230: 0000 0000 0000 0000 0000 0000 0000 0000
00000240: 0000 803f 0000 803f 0000 803f 0000 803f
00000250: 0000 803f 0000 0000 0000 0000 0000 0000
00000260: 0000 803f 0000 803f 0000 803f 0000 803f
00000270: 0000 803f 0000 803f 0000 0000 0000 0000
00000280: 0000 803f 0000 803f 0000 803f 0000 803f
00000290: 0000 803f 0000 803f 0000 803f 0000 0000
000002a0: 0000 803f 0000 0000 0000 0000 0000 0000
000002b0: 0000 0000 0000 0000 0000 0000 0000 0000
000002c0: 0000 803f 0000 803f 0000 0000 0000 0000
000002d0: 0000 0000 0000 0000 0000 0000 0000 0000
000002e0: 0000 803f 0000 803f 0000 803f 0000 0000
000002f0: 0000 0000 0000 0000 0000 0000 0000 0000
00000300: 0000 803f 0000 803f 0000 803f 0000 803f
00000310: 0000 0000 0000 0000 0000 0000 0000 0000
00000320: 0000 803f 0000 803f 0000 803f 0000 803f
00000330: 0000 803f 0000 0000 0000 0000 0000 0000
00000340: 0000 803f 0000 803f 0000 803f 0000 803f
00000350: 0000 803f 0000 803f 0000 0000 0000 0000
00000360: 0000 803f 0000 803f 0000 803f 0000 803f
00000370: 0000 803f 0000 803f 0000 803f 0000 0000
00000380: 0000 803f 0000 0000 0000 0000 0000 0000
00000390: 0000 0000 0000 0000 0000 0000 0000 0000
000003a0: 0000 803f 0000 803f 0000 0000 0000 0000
000003b0: 0000 0000 0000 0000 0000 0000 0000 0000
000003c0: 0000 803f 0000 803f 0000 803f 0000 0000
000003d0: 0000 0000 0000 0000 0000 0000 0000 0000
000003e0: 0000 803f 0000 803f 0000 803f 0000 803f
000003f0: 0000 0000 0000 0000 0000 0000 0000 0000
1.0 0.0 0.0 0.0 0.0 0.0 0.0 0.0
1.0 1.0 0.0 0.0 0.0 0.0 0.0 0.0
1.0 1.0 1.0 0.0 0.0 0.0 0.0 0.0
1.0 1.0 1.0 1.0 0.0 0.0 0.0 0.0
1.0 1.0 1.0 1.0 1.0 0.0 0.0 0.0
1.0 1.0 1.0 1.0 1.0 1.0 0.0 0.0
1.0 1.0 1.0 1.0 1.0 1.0 1.0 0.0
1.0 0.0 0.0 0.0 0.0 0.0 0.0 0.0
1.0 1.0 0.0 0.0 0.0 0.0 0.0 0.0
1.0 1.0 1.0 0.0 0.0 0.0 0.0 0.0
1.0 1.0 1.0 1.0 0.0 0.0 0.0 0.0
1.0 1.0 1.0 1.0 1.0 0.0 0.0 0.0
1.0 1.0 1.0 1.0 1.0 1.0 0.0 0.0
1.0 1.0 1.0 1.0 1.0 1.0 1.0 0.0
1.0 0.0 0.0 0.0 0.0 0.0 0.0 0.0
1.0 1.0 0.0 0.0 0.0 0.0 0.0 0.0
1.0 1.0 1.0 0.0 0.0 0.0 0.0 0.0
1.0 1.0 1.0 1.0 0.0 0.0 0.0 0.0
1.0 1.0 1.0 1.0 1.0 0.0 0.0 0.0
1.0 1.0 1.0 1.0 1.0 1.0 0.0 0.0
1.0 1.0 1.0 1.0 1.0 1.0 1.0 0.0
1.0 0.0 0.0 0.0 0.0 0.0 0.0 0.0
1.0 1.0 0.0 0.0 0.0 0.0 0.0 0.0
1.0 1.0 1.0 0.0 0.0 0.0 0.0 0.0
1.0 1.0 1.0 1.0 0.0 0.0 0.0 0.0
1.0 1.0 1.0 1.0 1.0 0.0 0.0 0.0
1.0 1.0 1.0 1.0 1.0 1.0 0.0 0.0
1.0 1.0 1.0 1.0 1.0 1.0 1.0 0.0
1.0 0.0 0.0 0.0 0.0 0.0 0.0 0.0
1.0 1.0 0.0 0.0 0.0 0.0 0.0 0.0
1.0 1.0 1.0 0.0 0.0 0.0 0.0 0.0
1.0 1.0 1.0 1.0 0.0 0.0 0.0 0.0

weight f4 [50, 13]
00000000: 3a91 d3bc 17ee 413e ac7f 953e a30e 1a3e
00000010: 9491 7bbe 0e19 c93d 17ed 173d b238 103e
00000020: 130e b1be ddd8 e33d d552 3d3e 3e14 a4be
00000030: af86 5dbd 0728 d83d db2d 93be 37dd 063d
00000040: 13ae 943d 845d 103d 08e1 863e 4686 6f3e
00000050: 4a78 7e3e 1a4e 14bd 8ce8 303e bcf8 cbbe
00000060: 538f 95be 2e34 fdbd ba5a 74be aabc 0f3e
00000070: 3582 2f3d 87ed ce3d dff9 093e 4299 58be
00000080: 9de5 c939 8c6a a53d 2350 cd3d 79d4 db3d
00000090: 96d1 66be 08de 2cbe e38c 8b3e 8346 65be
000000a0: 15bb adbe d104 3b3d 2042 503d 5bc1 4dbe
000000b0: c468 f1bd b923 67be ea7a 78be 8702 ba3d
000000c0: 0552 18be 64a6 213e 9306 94be 114e 98bd
000000d0: 4b97 f03c dfa1 2b3e 521e 803e 4cfb 573e
000000e0: 6408 063e f957 18be 62c7 78be 46ef 98be
000000f0: 2500 13bd 8a06 683e 7873 a0bd 7dd6 47bc
00000100: 234d 2bbe b7cc 493e 75b1 973e 992e 19be
00000110: e280 99bd cc3c 9b3e 5874 da3d b7a1 e2bc
00000120: 80b7 d43c f601 84bd c929 52be 0369 84be
00000130: 6cc5 1c3e 13eb ffbd 76f9 84bd 1780 16bd
00000140: 0d2c f2bd 865f 50bd fb27 5bbe 6fd5 5c3e
00000150: fd8f dd3d a0c2 17be 2e03 d0bd a86a 003e
00000160: d346 b7bd 49f4 ab3d 08a9 7a3d 637f 35be
00000170: 03d9 d33c 78d0 3abd 332b 363e 2099 1fbe
00000180: 3469 debd 856e 5c3e 3448 7cbe dcec c33b
00000190: a563 8f3e e95b 88bd 1431 9d3e a1d0 583e
000001a0: 9734 a03e 7b42 a6bb bed4 813e 5e7b 00be
000001b0: 1811 f2bd 02ba 363d dbcd e8bc 636a 763d
000001c0: 84af 363e 7049 5cbe 31f3 373e 9b47 c23d
000001d0: c1b4 133c 330d 423e 524b 1bbd c377 19be
000001e0: 7b33 943e 5943 d4bd 6096 503e a01d 85be
000001f0: 52ce 49bd 1a67 c13a 8756 423d ff9c 933c
00000200: f86d 533d 9414 fdbd 1f1e 6d3d b9cf 7a3e
00000210: e6c9 5fbe 7dbe 65bd efa6 16be 4ade 4e3e
00000220: 3d0a 493e d1d8 45bd 79ed 08be 5d63 45be
00000230: d5bb 523e 0296 6abc c253 653e 9e74 b93d
00000240: 3563 253e a6a0 073e 3f5f 88be 8a38 963b
00000250: d60b 2dbe c404 d63d 8cac 5fbd 5332 a3bb
00000260: b483 5fbe b334 86be 0c23 fa3d 6ed0 f53d
00000270: e92b ed3c dabb 523e 7c00 bdbd 911f f53d
00000280: 92ff 18be 9c24 b43c 88c7 03be f0ef f83d
00000290: 174f 2d3e f422 2c3e eb22 69bd b3e5 ca3d
000002a0: 6de5 abbe 927e 24be 0597 0b3d 5594 b3bc
000002b0: 342b 74be f0d0 f9bd a1b8 adbd 93ed 4abe
000002c0: d5df e23d 6ee7 8c3e 48bc 4f3e 2848 32bd
000002d0: 264f 43be 252e 58be 17e3 b23c bd46 5b3e
000002e0: ab2f afbd f2ed fcbd f416 f7bd 39c9 493b
000002f0: 5a1b 72be bc4a 5fbe 3400 983e fa92 f8bd
00000300: ed74 6bbd 5703 8fbd 3fd3 42be 31d9 f1bd
00000310: 061d 5a3d 88cb 00be d9cb aebc c13e 27bc
00000320: e984 91be f5c0 463e cc52 5d3e 6b91 313e
00000330: a67e 14be f72c e33c 55ff bcbe bce2 a5bd
00000340: b60d 26be 1251 1cbe 0b55 b93d a285 13be
00000350: 0dd2 13bd deb0 62bd 0e48 5cbe 49d0 563b
00000360: 859d 4abe cc76 0c3e 4be4 c33c d2d2 113e
00000370: 010e cebd 59e8 9e3c 5ec7 ec3c 49ce 723e
00000380: b298 563e cfb7 4cbe 1cbb a0be 0c78 aebe
00000390: 4127 68be 6a96 123e 264d c43c 3f9d 833e
000003a0: dbfb 683e d33b af3c c3c4 69be ebf6 733e
000003b0: 9790 4f3e b7e3 cf3d 9fe9 34be ddb4 373e
000003c0: c1dd c5bc 1663 063e 914c 763d e435 9e3d
000003d0: 33d7 aabe fe3a 79be 9395 d83d b107 05be
000003e0: 8807 92be f00b 643e 1ba6 07bd ec51 483e
000003f0: ba13 78be 337a 9d3d a363 f8bd a965 0dbe
-0.025826085 0.1893848 0.29198968 0.15044646 -0.24567252 0.09819232 0.03709134 0.14084128
-0.3458105 0.11125348 0.18488629 -0.32046694 -0.054083522 0.105545096 -0.28745922 0.03292581
0.072597645 0.035245433 0.2634356 0.23391065 0.24850574 -0.036207296 0.1727621 -0.39838207
-0.2921091 -0.12363468 -0.23862734 0.14036813 0.042848784 0.101038985 0.13474225 -0.21152213
0.00038508783 0.08076963 0.100250505 0.10733885 -0.22540888 -0.16881573 0.27255926 -0.2239018
-0.33931795 0.04565889 0.05084431 -0.2009329 -0.117875606 -0.22572221 -0.24265638 0.09082513
-0.14875038 0.15786129 -0.28911266 -0.07436765 0.029369017 0.16760968 0.25023133 0.21091956
0.13089138 -0.14877309 -0.24294809 -0.2987005 -0.03588881 0.22658744 -0.07834524 -0.012197134
-0.16728644 0.19706999 0.29627576 -0.14959182 -0.074952856 0.30319822 0.10666722 -0.027665002
0.025966406 -0.064456865 -0.20523752 -0.25861368 0.15309685 -0.12496009 -0.064928934 -0.03674325
-0.11824808 -0.05087235 -0.2140197 0.21565793 0.10818479 -0.14820337 -0.101568565 0.12540686
-0.089490555 0.08396203 0.061196357 -0.17724375 0.025860315 -0.045608968 0.17789917 -0.15585756
-0.1085991 0.21526535 -0.24636918 0.0059791636 0.2800571 -0.066581555 0.30701506 0.21173336
0.31290123 -0.005073843 0.25357622 -0.12547061 -0.118196666 0.044610985 -0.028418472 0.060160052
0.17840391 -0.21512389 0.17963864 0.09486314 0.009015263 0.18950348 -0.037913628 -0.14987092
0.28945526 -0.10364408 0.20369864 -0.25999165 -0.049269028 0.0014755458 0.0474458 0.018019198
0.051618546 -0.123574406 0.057890054 0.24493302 -0.21854362 -0.056089867 -0.14712118 0.20201984
0.19632812 -0.048302475 -0.13371839 -0.19276185 0.20579465 -0.014317991 0.22395232 0.09055446
0.16151126 0.13244876 -0.26635167 0.0045843767 -0.16899046 0.10450128 -0.054607913 -0.0049803643
-0.21827585 -0.2621208 0.12213716 0.120026454 0.028951602 0.20579472 -0.09228608 0.119689114
-0.14941242 0.021990113 -0.12869084 0.121551394 0.16924702 0.16810209 -0.056918066 0.09907093
-0.33573475 -0.16063908 0.03407957 -0.021921316 -0.23844606 -0.12198055 -0.08482481 -0.1981719
0.11077849 0.27520317 0.20286667 -0.043525845 -0.19073161 -0.21111353 0.0218368 0.21413703
-0.08554014 -0.12350072 -0.12064925 0.0030790104 -0.23643246 -0.21805853 0.29687655 -0.121374086
-0.057484556 -0.06983059 -0.19025896 -0.11809004 0.053250335 -0.12577641 -0.021337437 -0.010207833
-0.28421715 0.19409545 0.21613616 0.17340629 -0.14501438 0.027731402 -0.36913553 -0.08099887
-0.16216168 -0.15265301 0.09049424 -0.14406446 -0.036088992 -0.055344455 -0.21511862 0.0032777956
-0.19786651 0.13717192 0.02391257 0.14240578 -0.10061265 0.019397901 0.02890366 0.23711504
0.20956686 -0.19991992 -0.31392753 -0.34075963 -0.22671224 0.14315191 0.023962568 0.25705907
0.22752325 0.021390831 -0.22828965 0.2382466 0.2027 0.10150855 -0.17667244 0.17940088
-0.024153592 0.13123736 0.060131613 0.077251226 -0.3336731 -0.2433891 0.10575404 -0.12991215
-0.2852137 0.22270179 -0.033117395 0.195625 -0.24226275 0.07689323 -0.12128379 -0.13808312

bias f4 [50]
00000000: 10e1 4d3e 9ec7 7b3e e0bb 8d3d 5f21 43be
00000010: 3fd6 7abd 9540 a83d cd43 13be c7f7 58bd
00000020: 1913 1e3e 6a07 96be 47a3 8e3e e59a 58bd
00000030: e605 a0be cfd2 d43d 7219 72be 75eb 30ba
00000040: c6d3 be3d dbb3 53bc c4c9 5c3e 6e72 b83d
00000050: 94b9 493e 1e53 d6bd 7c5f 02be 5cb1 07bd
00000060: f350 b13e 76f7 203b c536 073e ad2c 4cbd
00000070: b884 b33d 2ea4 373e 7dd9 123c 11a1 9cbe
00000080: 379c 60be 6b5b cc3d 18d6 543e 8016 603e
00000090: e366 e6bc 4884 153e fa4c 963d 0ea5 8bbe
000000a0: a3a0 56be 4e78 42be c793 26ba 679c 09be
000000b0: 132b acbd 41ff 3dbc 31dc 853e dfda 963d
000000c0: ccad 963e 6c6e 9f3e
0.20105386 0.24587867 0.069206 -0.19055699 -0.061239477 0.08215443 -0.14381333 -0.052970674
0.15436973 -0.2930253 0.27858946 -0.052882094 -0.312545 0.10391771 -0.23642519 -0.0006748953
0.09317736 -0.012921299 0.21561342 0.09006201 0.19699699 -0.10465072 -0.12731737 -0.033128127
0.34632072 0.002456156 0.13204487 -0.049847294 0.087655485 0.17933723 0.008962986 -0.30591634
-0.21934591 0.09978374 0.20784795 0.21883583 -0.028125232 0.14601243 0.07338901 -0.27274364
-0.20959716 -0.18991205 -0.0006354418 -0.13438569 -0.08406653 -0.011596502 0.26144555 0.07365965
0.29429471 0.31138933

weight f4 [50, 50]
00000000: 0b40 c9bd 7a95 e9b9 f34f bf3c eed8 fc3d
00000010: 8386 33bd b3a6 63bd f277 b7bd faef 903e
00000020: fe1b 24bd bbf2 58bd c6e5 c33d 0241 053e
00000030: 7149 c3bb a229 ccbd 8f5e 303e 3f1c 46bd
00000040: 1978 85bd 139e cbbd 2f4b 8bbd 30d4 e2bd
00000050: da2d a7bd a74e d5bc f080 e9bc 26e8 683d
00000060: c1dd dbbd 0a18 4fb9 129c 55bd 0f18 8c3d
00000070: e467 473e d093 99bc 6cc5 91bd c48a debd
00000080: 1c2a aabd 0d3f 273d 64e8 043d c739 343e
00000090: fc24 acbc 75d2 943d f904 01be 77b7 1b3d
000000a0: 0096 0c3e da52 0fbe 1187 7dbe af69 b93d
000000b0: 3a22 b5bc c862 9abd 90b1 b03d e451 1b3c
000000c0: fb80 b53b 95e0 d3bd c7f2 d33d b173 f33d
000000d0: 348a cf3c d6cd b03c 25c4 953d 6671 b43d
000000e0: 339d 6dbd f13f d0bc cf5b 423c 5659 8cbd
000000f0: e268 073e a065 c6bd 3ba6 853d a80b d0bd
00000100: a1dd d03d 4565 293e d7a8 8b3c a23b 68bc
00000110: 262e b83d 88f7 cfbd 7167 c3bd 9a07 4dbe
00000120: 8438 ba3c 858c 703b fa54 83bd 050d 013d
00000130: 9260 9c3b 270c f13d 54c3 1bbe bc38 16be
00000140: 688f bf3d 0e78 12bd 44a5 0a3e 4012 66bd
00000150: a702 cbba ba0c 8ebd 04d9 a03d 4ff4 5d3d
00000160: 973c 9abd 92d9 be3d fc3a 13bc 7c7b 12bd
00000170: 4fb8 8dbc d73f 1b3e 330e 0e3e 84ee 8c3d
00000180: b1b8 ca3c e905 bd3d 8c3a 72bd e3aa bebd
00000190: c3ed e9bd 3896 f2bc 33c1 013e 8918 5c3c
000001a0: 762f 46bd 693b 6bbc aac4 37bb e605 8e3d
000001b0: c254 753d 9022 37be 324c 543d 3cae 5f3d
000001c0: b17d 5d3d 80f1 9dbc 0a75 c93d c423 363e
000001d0: 4509 303e 91cb 0abe dad0 5bbd 41dd c2bd
000001e0: c97d 8cbd c4ce fa3c 30ae 413e 9218 00bc
000001f0: 2061 bc3d eaed f13d dac2 8ebd 0735 ca3c
00000200: d342 61be 480c 68be af69 d0bd 7fa7 61bd
00000210: 3ee2 c1bd f585 f1bd 3021 e73d 5f76 18bd
00000220: a7d9 81bc 4502 a8bd a7df c93d edc6 a5bd
00000230: 1c4a 6abd 1417 e2bd fdb4 07bc 0f68 383e
00000240: b69c c9bc a8f1 9fbc 5aac 27bd 302d 543d
00000250: 44ef 1a3d c0e9 e1bd 4584 563e 499a ffbd
00000260: b5e8 a03c 8483 4f3c 0e3d 06bd b75f c53d
00000270: 4e8a f43d 6f15 f4bc 0f2c 45bd 28bc 093e
00000280: 6b4a 393c 8c14 d03c 4b6f 1ebd 815f c33b
00000290: 1edf 0c3e b1dc 37bd 7659 29bd 71bb f53c
000002a0: 4c35 9bbd 7b2e d13d e12e a3bb d42b babd
000002b0: b6c8 703d c42b bbbc cd24 a63d 83eb 22bd
000002c0: 7d8a 973d 67b5 eb3d 8bf7 ff3d 0893 4a3e
000002d0: 34d7 2bbe 19fb 14be 0d30 893c daff f5bd
000002e0: 4e23 1d3d bad5 30be a281 033e e7f4 5d3e
000002f0: 7108 88be adb1 f23d 6724 873d 3c22 bfbd
00000300: cc5c 6e3e 6b18 fbbd ce16 0cbe def0 77bd
00000310: d1a9 eabb 4e09 d03c 11ff 29bd 7b34 22be
00000320: 0a9e 90bc 1cbd 713d 20ee 8c3d 935c 513d
00000330: 4c40 ba3d 8fee 0f3d 7e47 dfbd e155 a33d
00000340: bf4f 2ebe e627 a9bc daaa b1b9 e95e dd3d
00000350: 3116 87bb faed 83bd 42be 833d d48d c3bd
00000360: 7b9f 02bd 58d8 143d cd41 81bc eb55 73bc
00000370: e703 b13d 481d 2bbe 8788 a2bd be00 923e
00000380: f6dc 143d 043e 213d 5b06 963d cb3c ae3d
00000390: 7e63 18bd 6370 86bd e57b 76bb 0c1c b63c
000003a0: 8988 42bc bd90 a83d 9430 ecbd c097 f5bd
000003b0: a41b 083e 6790 d53c ed60 65bd 927d a53d
000003c0: 2ae0 08bd bca6 67bd 54ca 4d3d 9c67 4cbd
000003d0: d449 1ebd dbb3 c83d 8f58 f13c c135 51bc
000003e0: 44e0 c3bd a5e0 93bd 829c edbd 1ac4 153d
000003f0: e70c f8bd 7800 d13d ee70 4f3b cf75 3cbe
-0.09826668 -0.00044552592 0.023353552 0.123460636 -0.043829452 -0.0555789 -0.08958425 0.28308088
-0.040065758 -0.05296586 0.0956531 0.1301308 -0.0059596826 -0.09968878 0.17223571 -0.04836678
-0.065170474 -0.0994226 -0.068014495 -0.11075628 -0.08163042 -0.02603848 -0.028503865 0.05686202
-0.107356556 -0.00019750014 -0.052150793 0.06840526 0.19473225 -0.01874724 -0.07117733 -0.10866311
-0.08308813 0.040831614 0.032448187 0.17600165 -0.02101373 0.07266704 -0.12599553 0.038016763
0.13729095 -0.13996449 -0.24758555 0.09053361 -0.022111047 -0.07538372 0.08627617 0.009479973
0.0055390573 -0.1034557 0.103490405 0.11887301 0.025334455 0.021582525 0.07312802 0.088106915
-0.058011245 -0.025421115 0.011862709 -0.06852977 0.13223603 -0.09687352 0.065258466 -0.10158473
0.10198522 0.16542538 0.017048283 -0.014174374 0.08993177 -0.10154635 -0.09541214 -0.20022431
0.022732027 0.003670485 -0.06412692 0.031506557 0.0047722543 0.11769896 -0.1521123 -0.1467008
0.093535244 -0.035759024 0.13539606 -0.05616975 -0.0015488461 -0.06936021 0.078538924 0.05418807
-0.07531088 0.09318842 -0.008986231 -0.035762295 -0.0172998 0.15161072 0.13872604 0.06881431
0.02474627 0.09229643 -0.059137866 -0.09309938 -0.114223026 -0.029612646 0.12671356 0.013433584
-0.048385106 -0.014357426 -0.0028040805 0.06934719 0.059895284 -0.17884278 0.051830478 0.054609522
0.054074947 -0.019280195 0.098367766 0.17787081 0.17191036 -0.13554217 -0.053665973 -0.09514857
-0.06859929 0.030616172 0.18914104 -0.007818358 0.091982126 0.11812957 -0.06970759 0.024683489
-0.21998148 -0.22660935 -0.101764075 -0.055091377 -0.094669804 -0.117931284 0.11285627 -0.037222262
-0.015850855 -0.08203558 0.098571114 -0.08094583 -0.057199582 -0.11039558 -0.008282897 0.18008445
-0.024610858 -0.01952441 -0.04093585 0.051800907 0.037825838 -0.110309124 0.20948894 -0.124805994
0.019642213 0.012665633 -0.03277307 0.09637397 0.11940442 -0.029795377 -0.04813772 0.13450682
0.0113092465 0.025400423 -0.038680356 0.0059623127 0.13756987 -0.044888202 -0.041345082 0.029996606
-0.07578525 0.102139436 -0.0049799536 -0.09090391 0.058785163 -0.022848018 0.08112488 -0.039775383
0.073994614 0.11509209 0.12498387 0.1978265 -0.16781312 -0.14548911 0.016746545 -0.120116904
0.038363747 -0.1726903 0.1284242 0.21675454 -0.2656894 0.11850295 0.0659874 -0.093327016
0.23277587 -0.12260517 -0.13680574 -0.060532443 -0.007161357 0.025395062 -0.041503016 -0.15840332
-0.017653484 0.05901824 0.06881356 0.051113676 0.09094295 0.035139617 -0.10902308 0.079753645
-0.17022608 -0.020648908 -0.00033887365 0.10809118 -0.0041225185 -0.06441875 0.06432773 -0.09548536
-0.031890374 0.036339134 -0.015778447 -0.014852027 0.086433224 -0.16710389 -0.07936197 0.2851619
0.036343537 0.039365783 0.07325431 0.08507689 -0.03720426 -0.06564405 -0.0037610468 0.02223017
-0.011873373 0.08230732 -0.11532703 -0.11991835 0.13291794 0.026069833 -0.05600064 0.08080591
-0.033416905 -0.056555495 0.050241783 -0.049903497 -0.038644627 0.0979993 0.029461173 -0.012769164
-0.0956426 -0.07220582 -0.11602117 0.03656397 -0.12111836 0.102051675 0.0031653005 -0.18404315

bias f4 [50]
00000000: a27e f4bd d4ae 573d 52c9 2f3d 161a 1c3d
00000010: e1f4 b0bd 93ba 2b3d 2748 db3d f452 803d
00000020: 5a9e ce3d b558 ffbd 4aec a63d 02cb 7e3c
00000030: 3543 ba3c d5d7 3c3d 426e adbd 72d6 983d
00000040: 89ba 013e a566 f83d af56 8cbd c324 123e
00000050: 65c6 fe3d 9ddf 503c eab6 f7bd 5e31 933b
00000060: 1879 6fbd 5f17 fb3d be29 cdbd 4ba4 4b3d
00000070: b906 08bc 9983 533d 1874 053e d954 be3c
00000080: 1f40 f1bd fb87 c0bd a237 18bd fd9a 333d
00000090: 4786 163e 0084 4fbd 9ee6 cfbd 1d4a ba3d
000000a0: 1671 0ebe e72b 5cbc a3a5 763c d118 003e
000000b0: eba4 de3d 4bd6 313d 9a3b c03d 33cb fdbd
000000c0: 5774 2f3e 07ba 983d
-0.11938216 0.052656963 0.042916603 0.038110815 -0.08640457 0.041925978 0.10707121 0.06265822
0.10088797 -0.124680914 0.08150537 0.0155513305 0.022737125 0.04610427 -0.08468296 0.07462777
0.12668814 0.12128953 -0.06852471 0.14271836 0.124401845 0.012748626 -0.12095435 0.004491969
-0.058465093 0.12260317 -0.10017727 0.04971723 -0.008302384 0.051639173 0.13032568 0.023233818
-0.11779808 -0.09400936 -0.03716243 0.04384898 0.1469966 -0.050662994 -0.101514086 0.09096167
-0.13910326 -0.0134382015 0.015054139 0.12509467 0.10871299 0.043417256 0.09386368 -0.12392273
0.17134224 0.07457357
